 CUDA-version: 10000 (10020), cuDNN: 7.6.3, CUDNN_HALF=1, GPU count: 1  
 OpenCV isn't used - data augmentation will be slow 
 0 : compute_capability = 750, cudnn_half = 1, GPU: GeForce RTX 2080 Ti 
   layer   filters  size/strd(dil)      input                output
   0 conv     16       3 x 3/ 1    768 x 768 x   3 ->  768 x 768 x  16 0.510 BF  8
   1 max                2x 2/ 2    768 x 768 x  16 ->  384 x 384 x  16 0.009 BF  8
   2 conv     32       3 x 3/ 1    384 x 384 x  16 ->  384 x 384 x  32 1.359 BF  16
   3 max                2x 2/ 2    384 x 384 x  32 ->  192 x 192 x  32 0.005 BF  16
   4 conv     64       3 x 3/ 1    192 x 192 x  32 ->  192 x 192 x  64 1.359 BF  32
   5 max                2x 2/ 2    192 x 192 x  64 ->   96 x  96 x  64 0.002 BF  32
   6 conv    128       3 x 3/ 1     96 x  96 x  64 ->   96 x  96 x 128 1.359 BF  64
   7 max                2x 2/ 2     96 x  96 x 128 ->   48 x  48 x 128 0.001 BF  64
   8 conv    256       3 x 3/ 1     48 x  48 x 128 ->   48 x  48 x 256 1.359 BF  128
   9 max                2x 2/ 2     48 x  48 x 256 ->   24 x  24 x 256 0.001 BF  128
  10 conv    512       3 x 3/ 1     24 x  24 x 256 ->   24 x  24 x 512 1.359 BF  256
  11 max                1x 1/ 1     24 x  24 x 512 ->   24 x  24 x 512 0.000 BF  256
  12 conv   1024       3 x 3/ 1     24 x  24 x 512 ->   24 x  24 x1024 5.436 BF  512
  13 conv    256       1 x 1/ 1     24 x  24 x1024 ->   24 x  24 x 256 0.302 BF  128
  14 conv    512       3 x 3/ 1     24 x  24 x 256 ->   24 x  24 x 512 1.359 BF  256
  15 conv     21       1 x 1/ 1     24 x  24 x 512 ->   24 x  24 x  21 0.012 BF  21
  16 yolo
[yolo] params: iou loss: mse (2), iou_norm: 0.75, cls_norm: 1.00, scale_x_y: 1.00
  17 route  13 		                           ->   24 x  24 x 256 
  18 conv    128       1 x 1/ 1     24 x  24 x 256 ->   24 x  24 x 128 0.038 BF   64
  19 upsample                 2x    24 x  24 x 128 ->   48 x  48 x 128            64
  20 route  19 8 	                           ->   48 x  48 x 384                64+128
  21 conv    256       3 x 3/ 1     48 x  48 x 384 ->   48 x  48 x 256 4.077 BF   128
  22 conv     21       1 x 1/ 1     48 x  48 x 256 ->   48 x  48 x  21 0.025 BF    21
  23 yolo
[yolo] params: iou loss: mse (2), iou_norm: 0.75, cls_norm: 1.00, scale_x_y: 1.00
  24 route  21 		                           ->   48 x  48 x 256 
  25 conv    128       1 x 1/ 1     48 x  48 x 256 ->   48 x  48 x 128 0.151 BF    64
  26 upsample                 2x    48 x  48 x 128 ->   96 x  96 x 128              64
  27 route  26 6 	                           ->   96 x  96 x 256                  128
  28 conv    128       3 x 3/ 1     96 x  96 x 256 ->   96 x  96 x 128 5.436 BF      64
  29 conv     21       1 x 1/ 1     96 x  96 x 128 ->   96 x  96 x  21 0.050 BF       21
  30 yolo
[yolo] params: iou loss: mse (2), iou_norm: 0.75, cls_norm: 1.00, scale_x_y: 1.00
Total BFLOPS 24.208 
avg_outputs = 1050958 
 Allocate additional workspace_size = 52.43 MB 
Loading weights from model-mengdian/20200817-cup/yolov3-tiny_3l-layer817-768-xg_last.weights...Done! Loaded 31 layers from weights-file 
4812162024283
…
